paper_code/discrim_models/clickbait_classifierhead.pt (torch_old, 8765 bytes, 2 tensors)

mlp.weight f4 [2, 1024]
-0.039246123 0.0047965273 -0.016046755 -0.012992035 -0.093753874 -0.056477714 0.012744855 0.028779138
0.01266533 -0.046342067 -0.06358838 0.083308026 0.061294474 -0.07900338 -0.022615448 0.015825173
-0.03215223 -0.02431175 -0.025942137 -0.031154742 -0.011341088 0.037599947 -0.06731561 0.037725005
0.019218715 0.07064971 0.006922116 0.046070635 -0.012048006 0.0031962234 -0.054946695 0.052353047
0.032226138 0.06314834 -0.029009685 -0.050693903 0.021386338 -0.029823046 -0.038444594 0.052388348
0.07898465 -0.010867449 0.0030581076 0.049248796 0.0023658783 0.007968654 -0.0058682906 -0.0042139688
0.03783671 0.013683194 -0.021001425 0.055059597 -0.011847539 0.018789358 0.021940846 -0.013555367
0.028164329 0.054652657 -0.03144508 0.005628421 0.04900507 0.03007539 -0.05220431 -0.08844641
-0.02989623 0.118918054 0.027099447 -0.06416097 0.08148665 0.073738396 -0.033241782 -0.05124753
0.004598367 -0.013227341 0.0024241698 0.10073004 0.026284954 0.06727255 -0.017961733 -0.051446296
0.017898316 -0.0942083 -0.08787438 0.007031455 0.023612836 0.046169087 0.0060140667 -0.10871842
0.06661733 -0.0009942184 -0.08947982 -0.006896159 0.023557035 0.041521177 0.06431865 -0.037278425
-0.04359158 -0.07149104 0.06445655 0.05260405 0.041688472 -0.019520948 0.044755142 0.00059560564
-0.07137904 -0.10217438 -0.11003738 -0.05237879 -0.02138895 0.038773127 -0.013614379 -0.052718922
0.07109689 0.042480234 -0.06498414 -0.015786998 -0.003811951 -0.050873645 0.04550658 -0.08657179
0.03078026 -0.11251754 0.012034576 -0.05036111 0.053636592 -0.01816337 0.013677117 0.0036958952
-0.074950576 0.00891483 0.008231256 0.061837953 -0.051560745 -0.050400157 -0.04684407 0.05543778
-0.06262868 0.04245146 -0.00881986 0.12671849 -0.07819966 -0.087698124 -0.06839544 0.044484854
-0.019889321 -0.02001153 -0.04143541 0.00045084817 0.005493957 0.052495383 -0.070472755 -0.12462403
0.029228978 -0.0024019182 -0.011542703 0.023191363 -0.0683329 -0.020551372 -0.004953479 0.021655599
0.06436567 -0.033576097 0.006891419 -0.064784415 0.019751912 0.09556915 -0.06604637 -0.18359077
0.038129617 0.05281903 0.047402095 -0.048600204 0.096023716 -0.001545611 -0.04982726 0.017773353
0.061944917 0.019946257 0.05562704 0.09154947 -0.072574444 -0.013986696 -0.035109945 -0.020129107
-0.04020087 -0.010137334 0.013123534 -0.042468283 0.02481227 -0.04180647 0.02686279 0.07576124
0.04882044 0.04517363 0.0012581494 0.009895111 -0.0337757 -0.058406115 -0.11124006 0.0027296208
0.058786124 0.03781428 -0.05968714 -0.021178238 -0.093295045 -0.0369604 0.07922136 -0.008896915
-0.094964474 -0.0036131903 -0.029307501 0.0011156154 -0.027261226 -0.03796978 0.062212694 -0.07252167
0.09261285 -0.025544407 5.935115e-05 0.11830362 0.10799778 0.046743926 0.060269453 0.0070871185
-0.0072545544 -0.017493075 -0.0522941 -0.04670308 0.05252446 0.05873869 0.08067598 0.032835197
0.02474977 0.0006535307 -0.0377612 -0.02516353 -0.017700616 0.050557833 0.060994387 0.003941657
0.018248048 0.060692657 -0.06475221 -0.00077757257 0.03913561 -0.016643362 -0.06388885 0.017572882
0.041096598 -0.0021150655 -0.011981912 -0.081336 -0.018020924 -0.020020002 -0.017313095 0.111343704
00000000: 8bc0 20bd 302c 9d3b 7c74 83bc 8bdc 54bc
00000010: 0802 c0bd 2d55 67bd cccf 503c 3ac2 eb3c
00000020: 3f82 4f3c 2ed1 3dbd a03a 82bd 669d aa3d
00000030: ea0f 7b3d 86cc a1bd 0844 b9bc cba3 813c
00000040: 0fb2 03bd 6f29 c7bc 9b84 d4bc 3b38 ffbc
00000050: f9cf 39bc 6702 1a3d c4dc 89bd 8985 1a3d
00000060: 9170 9d3c ccb0 903d ebd2 e23b 90b4 3c3d
00000070: 0065 45bc bb77 513b c90f 61bd 2670 563d
00000080: 8eff 033d eb53 813d b8a5 edbc 69a4 4fbd
00000090: 6732 af3c 764f f4bc 1478 1dbd 2a95 563d
000000a0: b4c2 a13d 630d 32bc 886a 483b 1bb9 493d
000000b0: da0c 1b3b f58e 023c ca4a c0bb 5515 8abb
000000c0: abfa 1a3d 7a2f 603c 2e0b acbc 2c86 613d
000000d0: 2e1c 42bc 24ec 993c 4abd b33c 5417 5ebc
000000e0: e1b8 e63c 77db 5f3d 8ecc 00bd 9e6e b83b
000000f0: 8ab9 483d aa60 f63c 30d4 55bd 6423 b5bd
00000100: f0e8 f4bc 4f8b f33d a9ff dd3c d466 83bd
00000110: 79e2 a63d 2804 973d 8928 08bd eee8 51bd
00000120: e6ad 963b 7db7 58bc d2de 1e3b 8d4b ce3d
00000130: 8b53 d73c 31c6 893d 7c24 93bc 5ab9 52bd
00000140: 7d9f 923c 48f0 c0bd 7cf7 b3bd 1f68 e63b
00000150: b56f c13c cc1b 3d3d a611 c53b c3a7 debd
00000160: ab6e 883d 6f50 82ba 3241 b7bd 2df9 e1bb
00000170: affa c03c 1c12 2a3d 7fb9 833d 43b1 18bd
00000180: 168d 32bd e569 92bd cc01 843d 5877 573d
00000190: 88c1 2a3d 65ea 9fbc 2b51 373d 6b22 1c3a
000001a0: 2d2f 92bd cd40 d1bd 475b e1bd 248b 56bd
000001b0: e137 afbc 92d0 1e3d d80e 5fbc ccef 57bd
000001c0: 3f9b 913d c1ff 2d3d 6816 85bd bc53 81bc
000001d0: edd1 79bb e260 50bd 1c65 3a3d 8d4c b1bd
000001e0: e226 fc3c 996f e6bd ac2c 453c 7447 4ebd
000001f0: 0bb2 5b3d 59cb 94bc fd15 603c d536 723b
00000200: b07f 99bd 820f 123c 64dc 063c cb49 7d3d
00000210: 5c31 53bd 6570 4ebd 91df 3fbd ba12 633d
00000220: 7743 80bd 95e1 2d3d 2d81 10bc 7ec2 013e
00000230: 2527 a0bd 139b b3bd e912 8cbd c035 363d
00000240: eeee a2bc 38ef a3bc 2db8 29bd d15f ec39
00000250: a706 b43b 6605 573d 0554 90bd e23a ffbd
00000260: 9c71 ef3c 8069 1dbb 9b1d 3dbc d0fb bd3c
00000270: 1ff2 8bbd 5a5b a8bc cb50 a2bb 1567 b13c
00000280: 26d2 833d 1787 09bd 6ad1 e13b b1ad 84bd
00000290: c3ce a13c c2b9 c33d 5243 87bd 38ff 3bbe
000002a0: cd2d 1c3d c458 583d b328 423d 0211 47bd
000002b0: 15a8 c43d 1996 caba ab17 4cbd 6c99 913c
000002c0: f4b9 7d3d 5566 a33c 2ed9 633d 4a7e bb3d
000002d0: e9a1 94bd 7428 65bc 72cf 0fbd cce5 a4bc
000002e0: aba9 24bd 0f17 26bc 1704 573c 39f3 2dbd
000002f0: 1a43 cb3c 433d 2bbd 5b0f dc3c b628 9b3d
00000300: f1f7 473d fc07 393d 7de8 a43a 1b1f 223c
00000310: 6358 0abd 403b 6fbd d4d1 e3bd 70e3 323b
00000320: b8c9 703d 25e3 1a3d 817a 74bd fc7d adbc
00000330: 7911 bfbd ca63 17bd cf3e a23d 5ec4 11bc
00000340: bc7c c2bd 46cb 6cbb 4916 f0bc d739 923a
00000350: ef52 dfbc 3386 1bbd bdd2 7e3d 3e86 94bd
00000360: ceab bd3d 8142 d1bc d0ef 7838 2b49 f23d
00000370: f12d dd3d 8f76 3f3d 1add 763d 0f3b e83b
00000380: 9db7 edbb a34d 8fbc 5732 56bd bb4b 3fbd
00000390: e323 573d fb97 703d 7339 a53d 337e 063d
000003a0: 08c0 ca3c b451 2b3a 7dab 1abd bf23 cebc
000003b0: e200 91bc bb15 4f3d 40d5 793d 0429 813b
000003c0: ee7c 953c dd98 783d cf9c 84bd 03d6 4bba
000003d0: a94c 203d a957 88bc 28d8 82bd 01f5 8f3c
000003e0: e854 283d e99c 0abb c84f 44bc 7d93 a6bd
000003f0: 9ea0 93bc fd00 a4bc 31d4 8dbc 2b08 e43d

mlp.bias f4 [2]
-0.0049403016 -0.0163433
00000000: 41e2 a1bb 62e2 85bc
