paper_code/discrim_models/sentiment_classifierhead.pt (torch_old, 21065 bytes, 2 tensors)

mlp.weight f4 [5, 1024]
000000 5b 62 8c 3d a5 9a ac bc 1a 12 19 3d 6e 9c a9 3b
       0.06854697 -0.021069834 0.03737078 0.0051761186
000010 06 29 e2 3d ee 06 d0 bd 1a ee e1 bb 41 7c d2 3d
       0.11042981 -0.10157572 -0.006894839 0.10277606
000020 26 ee 54 be ec 49 70 bc 9b 04 57 3d 55 89 53 3d
       -0.20793971 -0.014666062 0.052494626 0.051644642
000030 90 f0 1e bd 09 e3 60 3b e4 c5 0b bd f9 a1 aa bc
       -0.038803637 0.003431501 -0.03412427 -0.020829188
000040 70 62 cb bd 25 46 49 3c 1e 57 3a bb ae 17 a3 3c
       -0.09930885 0.01228479 -0.0028433274 0.019908752
000050 23 67 eb bc 3f 78 ba 3d ad cf 09 bd c6 6f fc 3d
       -0.028735703 0.09104966 -0.03364532 0.123260066
000060 0a c8 72 3d f1 7f a4 bc a7 54 22 3e 06 e0 39 bd
       0.059272803 -0.020080538 0.15852605 -0.04537966
000070 e9 f0 64 bd 6d a6 2c bd 43 0e 60 3d 5c 05 92 3d
       -0.055893812 -0.042150903 0.0547011 0.071299285
000080 d3 ad f0 bc c3 03 e5 3d 10 52 a4 bd 99 16 97 bd
       -0.02937976 0.11182358 -0.08023465 -0.07377357
000090 ed 25 9a bd 7b 0f ae 3c fd 30 87 3c e9 6e 49 b9
       -0.07526765 0.021247616 0.016502852 -0.00019210171
0000a0 ca e0 d4 3d 35 18 35 3d 4a a1 a5 3d 64 d6 3b bd
       0.103944376 0.04421254 0.08087404 -0.045858756
0000b0 2e ad f6 3c 43 43 4d 3d 72 b8 f3 3d 64 35 04 be
       0.030111875 0.050112974 0.119004145 -0.12910992
0000c0 de 85 ee bb 6f 40 ea 3c 38 ae 0d be a4 03 89 bc
       -0.007279142 0.028595177 -0.1383599 -0.016725369
0000d0 9a 9b c5 bb 82 1f 0a be 52 3d 33 3e 2b c7 6f 39
       -0.006030512 -0.13488582 0.1750386 0.00022867012
0000e0 10 82 cc bd 93 5d 8e 3d 96 66 42 3c 9d 64 59 bc
       -0.09985745 0.069514416 0.011865279 -0.013268617
0000f0 f0 a5 29 3d 67 09 c9 bd 6d 9d 84 bc 65 bd 71 bd
       0.041418016 -0.098162465 -0.016188348 -0.05901851
000100 be 14 a0 bd 56 5d 13 bd 46 6d ea 3d 29 16 7f 3d
       -0.07816456 -0.035977684 0.114466235 0.062276993
000110 45 d8 7d bd 58 24 95 bd 43 71 0d be 5d 74 d4 bc
       -0.06197383 -0.07282323 -0.13812737 -0.025934393
000120 5a 8f 90 3c 6b 2f f5 bd 0c 4f 9b bd 4a b2 11 3a
       0.01764648 -0.11971935 -0.07583436 0.0005557878
000130 8c 2c 5f bc 80 7f 8d 3d a6 7e 64 bd 75 85 8c 3d
       -0.013621461 0.06909084 -0.055784844 0.068613924
000140 4d 29 1d bd 9f ff 23 bb 49 38 10 3d 98 0f a8 bd
       -0.038369466 -0.0025024188 0.035209928 -0.08206099
000150 5f df 88 bd f6 3a 28 3d 26 ca 99 3c 0a fc 9b bc
       -0.0668323 0.041071855 0.01877315 -0.01904108
000160 e1 a3 a5 bd 9a 4b 7f bd 1b b1 5b 3b 61 b5 5f bd
       -0.08087898 -0.06232796 0.003352231 -0.054616336
000170 aa 64 13 3d 83 55 3c bd de 5e 95 bb 7e c1 72 3c
       0.035984673 -0.045979988 -0.004558428 0.01481664
000180 42 dd 11 bb d9 2c 28 3e 9f 75 52 3d f7 f0 a5 bd
       -0.0022257124 0.16423358 0.051381703 -0.08102601
000190 46 7a e9 3d fb 46 c8 3c 8e d9 35 be 2b 46 8c bc
       0.11400275 0.024447909 -0.17758772 -0.017123302
0001a0 ea bc 28 bc 4f 15 ce bb ad 07 32 bd c3 c0 1e 3d
       -0.010298947 -0.0062891613 -0.04346435 0.03875805
0001b0 50 4f a2 3d 33 9b a6 3c 9a be 4b 3e 41 9e d6 bc
       0.07925284 0.020337677 0.19896927 -0.026198508
0001c0 0f ae 52 3d ed a6 3f bc 47 50 b9 3b 29 e7 c6 bb
       0.051435526 -0.011697513 0.0056553218 -0.006070037
0001d0 ce 16 48 3d 22 31 74 bd 9c 8c e5 bb 7a 3e d1 3d
       0.048849873 -0.05961717 -0.0070052873 0.102169946
0001e0 26 1c 4d bc 17 16 95 3c e8 9a 7c bd ce 3c 44 3a
       -0.012518918 0.01819901 -0.061671168 0.0007485867
0001f0 07 b2 3b bc 48 ec bc 3d 04 78 87 bd 13 5a 87 bc
       -0.011456019 0.092247546 -0.06614688 -0.016522443
000200 58 d7 bf 3d c2 1a 36 3d ae 26 a7 3d ef 7c 07 3c
       0.093672454 0.044459112 0.081616744 0.008269533
000210 15 bf 38 bd 36 a4 e7 3d 8a df aa ba 5d 29 a0 bc
       -0.045104105 0.113106176 -0.001303659 -0.019550974
000220 d8 a4 f9 3d d1 a1 d8 bc b1 56 78 bd 8e 82 7e bd
       0.121896446 -0.026444348 -0.06062955 -0.062136225
000230 ef 1a e9 3d 06 94 8a bc 58 b1 00 be dd 2c 55 bd
       0.1138209 -0.016916286 -0.12567651 -0.052044738
000240 e4 25 81 bd ba 6f 9e bc 33 77 44 3d 44 f2 39 3d
       -0.06306055 -0.019340385 0.04796524 0.045397058
000250 c9 da 1f 3d 30 2c 03 3d 95 69 5e bd 55 4d 0d bd
       0.03902701 0.032024562 -0.05429991 -0.034497578
000260 aa 7c 9e 3c 6f e1 ce 3d f5 30 5d bd 9b 17 6b bd
       0.019346554 0.10101592 -0.054001767 -0.05739556
000270 16 cb a1 3d 80 96 8a bd a5 bf fd 3d 27 05 e9 bb
       0.07900064 -0.06766987 0.12390069 -0.00711121
000280 ed ff b5 3d a7 b0 90 3c 63 21 5b bd c9 28 b0 3d
       0.088867046 0.01766236 -0.053498637 0.08601529
000290 23 3d d0 3d 19 3a 9f bc a2 bd 10 bd ce 89 95 3d
       0.10167911 -0.019436883 -0.035337098 0.07301675
0002a0 d1 ec dc 3d 17 74 d6 3c 84 24 74 bd 97 17 0d 3e
       0.10787357 0.026178403 -0.059605137 0.1377853
0002b0 20 6a 16 3d 70 a4 5e bb b1 c7 8c bb 46 7c 8a bd
       0.036722302 -0.0033972524 -0.004296266 -0.067619845
0002c0 35 7c 2f 3e e9 a9 99 bd 70 d3 26 be 70 f0 2f 3b
       0.17137225 -0.07503111 -0.16291595 0.0026846193
0002d0 bc cc 89 bd b1 ec 0d 3d 51 2c 4d bc 8a 52 8f bd
       -0.06728503 0.034649555 -0.012522773 -0.06998165
0002e0 a2 72 bf bd 54 c2 5c bd 6b dd 98 3c ab 3e ec bc
       -0.09348036 -0.053896263 0.018660268 -0.028838476
0002f0 f2 a0 4b bc 58 f9 0a bc b5 29 4b be 1a fa d6 bb
       -0.012428509 -0.0084823 -0.19840129 -0.006560576
000300 22 24 eb bd 4a 55 7d bd cd 0d 8a bd 32 2a 9c 3c
       -0.11481501 -0.061848916 -0.067409135 0.019063089
000310 31 fb 1d 3d 87 93 0c be a1 19 d9 bd 1c 86 8f bd
       0.038569633 -0.13728152 -0.106005915 -0.07008001
000320 53 90 fd 3c 28 56 66 3d 93 8f 9e 3c 88 cd 8d 3d
       0.030952608 0.05623451 0.01935557 0.069239676
000330 de d2 13 3e c1 68 15 3e 6b ef 29 3d 2d 16 f1 3c
       0.14435908 0.14590742 0.041488092 0.02942952
000340 e9 25 6e 3d 53 3b 1b bd bc 9b 1d 3e 74 63 45 bd
       0.058141623 -0.037898373 0.15391439 -0.04819055
000350 a9 fa 3b 3d 77 f1 76 3c e4 5c 71 3d 27 cf ca bd
       0.045893345 0.015072218 0.058926478 -0.099027924
000360 cd 4f 00 be b3 b6 0d 3d 46 dc 40 3c 99 38 c4 3b
       -0.12530442 0.034598064 0.011771267 0.0059881923
000370 b3 72 8d 3d 73 b8 4d 3c 6a fd fe 3c 44 d5 cb 3d
       0.06906643 0.012556183 0.031126697 0.099527866
000380 e6 82 bc bd cb 98 2f 3e 33 bb 69 3b 69 42 0d 3e
       -0.092046544 0.1714813 0.0035664558 0.13794865
000390 29 ee 5d 3c 64 fd b6 3c 84 0e bc bd 69 07 9b bc
       0.013545551 0.022337623 -0.09182456 -0.018924432
0003a0 4c 7a 4e bd 8d 52 7b 3c 36 99 db 3c 34 18 f3 3d
       -0.0504096 0.015339506 0.026806455 0.11869851
0003b0 34 3d 74 3d bb fd 35 bd 17 c6 da 3d cb 23 ff 3c
       0.05962868 -0.04443143 0.10682314 0.031144997
0003c0 d6 b2 fb bc 2d b5 08 3e 1e e4 4c bd b7 72 00 bd
       -0.030724924 0.13350363 -0.050022237 -0.0313594
0003d0 99 4e 1f 3e a5 01 01 3e 82 f5 c3 3c 0f c5 21 3d
       0.15557326 0.12598284 0.023920778 0.03949457
0003e0 b6 c5 7d bd 44 ed f1 3c d3 c6 83 3d 0d 4d 8c 3d
       -0.06195613 0.029532082 0.06434407 0.06850634
0003f0 48 5e 43 3d b7 8f cd bd da 9d 63 bc cf bc 05 3e
       0.047697335 -0.10037177 -0.013892615 0.13060306

mlp.bias f4 [5]
000000 55 55 c6 bc 38 28 98 3b 9e 7c 0d bc f3 c1 a7 bc
       -0.024210611 0.0046434663 -0.008635668 -0.020478224
000010 1e 65 73 3d
       0.059422605
