paper_code/discrim_models/toxicity_classifierhead.pt (torch_old, 8765 bytes, 2 tensors)

mlp.weight f4 [2, 1024]
0.09436777 -0.044953402 -0.07128345 0.017983852 0.032988597 -0.086112835 0.0726994 0.024286715
-0.07786483 -0.029668838 -0.082181476 0.1352453 0.07861583 -0.08917271 0.027554521 -0.105955645
-0.14197516 0.013076959 -0.043151937 0.010191527 0.049890224 -0.055283535 -0.048991892 0.16881764
0.15591282 -0.04371293 -0.05515151 0.050866388 0.09669431 -0.021708535 -0.039454944 -0.14332844
-0.044702046 0.076310776 0.024401976 0.06367398 0.0037735323 0.18811694 0.08672316 0.050226852
-0.03479257 -0.012217821 0.066293776 -0.064811826 0.09408093 -0.008562974 0.05748922 0.026312593
0.032876257 -0.08946077 -0.034085553 0.015197866 0.13097349 -0.0625507 0.20950675 -0.13906595
0.0020944364 0.035596356 0.07633124 -0.07150339 0.06242907 -0.12923554 -0.010717395 -0.10564187
-0.031366233 0.033983577 -0.00829408 0.010881069 0.06706464 -0.0034326112 -0.08736398 -0.08073747
-0.04485232 -0.03886787 -0.1011363 -0.027423296 -0.115045816 -0.0829267 0.0014521207 0.0012375251
-0.0025363492 -0.0048831925 0.113003805 -0.22361705 -0.0937855 0.0135987615 -0.074973285 -0.021365257
0.031075519 0.060074892 -0.022700684 -0.102374226 -0.0706467 -0.07145842 -0.015089775 -0.027379943
-0.020326288 0.07421988 0.0068748705 0.05972078 0.19050221 0.010672056 -0.115117975 0.018916015
-0.045508023 -0.0043047625 0.11451501 -0.0039335005 0.033262804 0.06015346 0.011237087 0.11298403
-0.009784359 0.033545084 -0.10900976 -0.005620056 0.059919696 0.013756619 -0.050495174 0.053384714
-0.06994874 -0.0823907 -0.15504026 -0.027820826 0.022774125 0.023081323 0.09987063 -0.13964498
-0.023829745 -0.08433544 0.025926055 -0.028263783 -0.096032776 -0.08800577 0.020621443 0.018110499
0.026512379 0.003897563 0.011146421 -0.030440437 0.09857948 -0.1092204 -5.8033227e-05 -0.05572593
-0.07544053 0.033138596 -0.004315138 -0.08103837 -0.013752247 0.05898755 0.050012745 0.0012019625
0.12641756 0.06436457 -0.034307826 -0.06358757 -0.049159568 -0.0057262518 -0.08729752 0.1383985
-0.026904522 0.016990885 -0.15665853 -0.001684028 0.15744498 -0.12879282 -0.04604865 -0.032696005
0.073234625 -0.005602621 0.0086787585 0.10093755 -0.074277595 -0.02358437 -0.0077409493 0.15293954
-0.020010363 -0.13065052 -0.054021902 0.14077412 0.048773974 0.017420914 0.05065677 0.004189859
0.035981487 0.021504715 0.023025386 -0.13794655 0.06573501 -0.035926078 -0.056948964 0.11029799
0.0060937037 -0.027602887 -0.11007531 0.030297745 0.019694846 0.08725426 -0.025791394 0.00939571
-0.014612113 -0.029649528 -0.06930136 0.0407652 0.027895344 -0.1266338 0.08918729 0.14345208
-0.079015605 0.0836221 0.16108438 -0.029812315 -0.080704644 -0.0735916 -0.13739401 0.04328472
0.053014252 0.023560153 0.024356538 -0.1231012 0.13253218 0.010247287 0.015386241 0.028411074
-0.058201257 -0.012853515 -0.07547213 -0.0032969678 -0.00419713 0.006170716 -0.14831267 -0.024588635
-0.014416199 -0.07120683 -0.03086615 0.06417728 -0.14143147 -0.039569743 0.07863998 0.16128093
0.10217759 0.11942823 -0.042582326 -0.06758932 -0.022462165 0.04737664 -0.023101076 0.004159739
-0.07180948 0.13502823 0.0044578584 -0.03877439 0.11741336 0.07752848 0.047562517 -0.0029008472
00000000: e443 c13d 0f21 38bd 0ffd 91bd df52 933c
00000010: 0d1f 073d ed5b b0bd 6ce3 943d eff4 c63c
00000020: 9977 9fbd 100c f3bc c34e a8bd be7d 0a3e
00000030: 5601 a13d 2fa0 b6bd 05ba e13c 46ff d8bd
00000040: f061 11be be40 563c 16c0 30bd 5dfa 263c
00000050: b159 4c3d fd70 62bd b9ab 48bd 88de 2c3e
00000060: 9ca7 1f3e 540c 33bd 8de6 61bd 4659 503d
00000070: ab07 c63d 19d6 b1bc 829b 21bd b1c4 12be
00000080: 7e19 37bd d348 9c3d a7e6 c73c 8167 823d
00000090: 5e4d 773b baa1 403e ea9b b13d acba 4d3d
000000a0: a782 0ebd 412d 48bc 08c5 873d 10bc 84bd
000000b0: 81ad c03d b74b 0cbc d179 6b3d 828d d73c
000000c0: 41a9 063d 3537 b7bd 4b9d 0bbd 7800 793c
000000d0: ea1d 063e 951a 80bd f088 563e 4e67 0ebe
000000e0: d042 093b 7ccd 113d 8e53 9c3d 5f70 92bd
000000f0: a0b5 7f3d 5256 04be 0398 2fbc c45a d8bd
00000100: e179 00bd 5d32 0b3d e5e3 07bc 8346 323c
00000110: 3059 893d a9f5 60bb e3eb b2bd b059 a5bd
00000120: 11b7 37bd ea33 1fbd 8c20 cfbd d2a6 e0bc
00000130: 249d ebbd 79d5 a9bd 1655 be3a 7434 a23a
00000140: e138 26bb 3003 a0bb 8a6e e73d defb 64be
00000150: 9d12 c0bd 57cd 5e3c 988b 99bd 3106 afbc
00000160: 1692 fe3c 1711 763d c9f6 b9bc 94a9 d1bd
00000170: 38af 90bd cb58 92bd 1b3b 77bc e74b e0bc
00000180: 5183 a6bc 9800 983d 9846 e13b c79d 743d
00000190: 0313 433e d9d9 2e3c f9c2 ebbd c2f5 9a3c
000001a0: 9f66 3abd f70e 8dbb d886 ea3d 98e4 80bb
000001b0: 943e 083d 7963 763d c21b 383c 2c64 e73d
000001c0: 934e 20bc 9266 093d 8240 dfbd 7228 b8bb
000001d0: 5b6e 753d 7163 613c 07d4 4ebd eea9 5a3d
000001e0: 4941 8fbd 75bc a8bd e0c2 1ebe 80e8 e3bc
000001f0: cd90 ba3c 0b15 bd3c f988 cc3d 18ff 0ebe
00000200: 9936 c3bc 0fb8 acbd e162 d43c 7389 e7bc
00000210: d5ac c4bd 5f3c b4bd 4dee a83c 785c 943c
00000220: 7d30 d93c 426e 7f3b 7a9f 363c 395e f9bc
00000230: 0ae4 c93d f2ae dfbd b468 73b8 df40 64bd
00000240: 9180 9abd 56bc 073d 0066 8dbb 72f7 a5bd
00000250: 1b51 61bc ee9c 713d 2ada 4c3d 2b8b 9d3a
00000260: 9b73 013e 92d1 833d 5d86 0cbd 333a 82bd
00000270: 8b5b 49bd 48a3 bbbb 0bc9 b2bd 56b8 0d3e
00000280: df66 dcbc 7830 8b3c 186b 20be 9aba dcba
00000290: 4239 213e 44e2 03be 829d 3cbd 3fec 05bd
000002a0: 09fc 953d 3196 b7bb 5a31 0e3c 59b8 ce3d
000002b0: da1e 98bd 0234 c1bc caa7 fdbb 2f9c 1c3e
000002c0: c6ec a3bc 40c9 05be 1246 5dbd 1727 103e
000002d0: 38c7 473d 4eb6 8e3c 797d 4f3d 164b 893b
000002e0: 5361 133d a82a b03c bc9f bc3c dc41 0dbe
000002f0: 14a0 863d 3927 13bd 5143 69bd eae3 e13d
00000300: b1ad c73b 731f e2bc 2a6f e1bd fa32 f83c
00000310: 1657 a13c 5db2 b23d 7948 d3bc 77f0 193c
00000320: a567 6fbc 91e3 f2bc dfed 8dbd 69f9 263d
00000330: c784 e43c 4aac 01be d3a7 b63d 1ae5 123e
00000340: efd2 a1bd 1042 ab3d 4ef3 243e f538 f4bc
00000350: 7a48 a5bd 31b7 96bd 04b1 0cbe 524b 313d
00000360: 7925 593d 3901 c13c 5d87 c73c 7b1c fcbd
00000370: 84b6 073e 3de4 273c 9216 7c3c 57be e83c
00000380: 7164 6ebd 8d97 52bc 2291 9abd f111 58bb
00000390: 1488 89bb b833 ca3b 47df 17be 1b6e c9bc
000003a0: ec31 6cbc e3d4 91bd 02db fcbc 616f 833d
000003b0: 69d3 10be e213 22bd ff0d a13d d426 253e
000003c0: 7c42 d13d ca96 f43d ce6a 2ebd 456c 8abd
000003d0: 9302 b8bc 020e 423d 783e bdbc 6b4e 883b
000003e0: d910 93bd d744 0a3e 3a13 923b e5d1 1ebd
000003f0: 6a76 f03d 40c7 9e3d ead0 423d 241c 3ebb

mlp.bias f4 [2]
-0.006274644 -0.00030588335
00000000: 879b cdbb f85e a0b9
